GCN/GA_GCN.pth (torch, 44020 bytes, 7 tensors)

gcn.conv1.bias f4 [64]
0	0xbd00f57e	-0.03148412
1	0xbd952d0e	-0.07283984
2	0x3e85aef5	0.26110044
3	0x3e2e201a	0.17004433
4	0x3ebfb3e4	0.37441933
5	0x3dd96e56	0.10616748
6	0x3eb33e8b	0.35008654
7	0x3e6474d0	0.22310185
8	0xbd64c1d7	-0.055848923
9	0xbd6422de	-0.055697314
10	0xbcd06ac8	-0.025441542
11	0x3e969e93	0.29417858
12	0x3e127a8b	0.14304559
13	0x3d6f803f	0.058471914
14	0xbe0c9102	-0.13727191
15	0x3de049cf	0.10951578
16	0x3dee0721	0.116224535
17	0xbd39d1e1	-0.04536617
18	0xbde8d0ae	-0.113679275
19	0x3e84b003	0.25915536
20	0xbe04f891	-0.12985446
21	0x3da9756f	0.08274352
22	0x3e8f7450	0.28018427
23	0x3e12bc39	0.14329614
24	0x3e48dd42	0.19615653
25	0x3d2cc1f6	0.042177163
26	0x3e9977e2	0.29974276
27	0x3d3ced35	0.046124656
28	0x3c95e7cb	0.018299004
29	0x3dd84599	0.1056015
30	0xbe1d3dc7	-0.15355597
31	0x3d365f34	0.044524387
32	0x3f3c6f1c	0.7360704
33	0x3d3d55d3	0.046224426
34	0xbd96546e	-0.073403224
35	0xbe4ce142	-0.20007804
36	0x3e875af8	0.2643659
37	0xbe2eb162	-0.17059854
38	0xbd6f8d63	-0.058484446
39	0x3e028f38	0.12749946
40	0xbd7b2d29	-0.061322365
41	0x3d51724d	0.051134396
42	0xbb470225	-0.0030366268
43	0x3dda6a2a	0.106647804
44	0x3ab71bc7	0.001397007
45	0xbd84bc1c	-0.064811915
46	0x3d9af3e8	0.07566053
47	0x3e3922c1	0.18079664
48	0x3a33cbd8	0.0006858683
49	0xbdb9eb89	-0.09078128
50	0x3d906e42	0.0705228
51	0xbb5e5783	-0.0033926673
52	0x3e053b02	0.13010791
53	0x3e6f3a73	0.2336214
54	0x3d91c65a	0.07117911
55	0x3d78a8a0	0.06070769
56	0xbd980841	-0.07423449
57	0x3d0b6432	0.0340311
58	0x3de701b7	0.11279624
59	0x3daa3014	0.083099514
60	0x3d01f9c4	0.031732336
61	0x3d1f4c1e	0.03889095
62	0x3d994461	0.07483745
63	0x3cbeef98	0.023307607

gcn.conv1.lin.weight f4 [64, 29]
0	0x3e469cc1	0.19395734
1	0x3e7ea3c2	0.24867156
2	0x3e2274ca	0.15864864
3	0xbc802965	-0.015644738
4	0xbebff51e	-0.37491697
5	0xbe88f8a1	-0.2675219
6	0x3ea17f9d	0.31542674
7	0x3e57e710	0.21084237
8	0x3f146dee	0.5798024
9	0x3ce10bc4	0.02747143
10	0x3e37bb84	0.17942625
11	0x3f1d4c4c	0.61444545
12	0x3c170bbc	0.009219106
13	0xbffbaf63	-1.9662899
14	0x3f16f45d	0.5896662
15	0x3ecf04f5	0.4043347
16	0xbf5083e5	-0.81451255
17	0x3ede976d	0.43474904
18	0xbe8adf6f	-0.2712359
19	0x3e6efb30	0.23338008
20	0x3ef27fc0	0.4736309
21	0xbeb52953	-0.3538309
22	0xbe66fc7b	-0.22557251
23	0x3d1b0d17	0.03785428
24	0x3cd5c26c	0.026093684
25	0xbf119f81	-0.5688401
26	0x3e3fbb43	0.18723778
27	0xbbf19338	-0.007372286
28	0xbd3dd0e2	-0.046341784
29	0x3e4b3e6e	0.19848034
30	0x3d8e05b0	0.069346786
31	0x3cb3209b	0.021866133
32	0x3ed16330	0.40895987
33	0x3d9e37b9	0.07725472
34	0x3e134d40	0.14384937
35	0x3ef9dd78	0.4880178
36	0xbe9b8e02	-0.3038178
37	0xbf380e79	-0.71897084
38	0x3e68e0ff	0.22742079
39	0x3efdb4aa	0.49551898
40	0xbfb65062	-1.4243281
41	0x3cbf13e4	0.023324914
42	0x3ee668e4	0.450019
43	0x3da4d129	0.08047707
44	0x3ee69b48	0.45040345
45	0xbf97fd5b	-1.1874193
46	0x3f0f79e5	0.5604537
47	0xbdd5a777	-0.10432332
48	0x3e0ec9c8	0.13944161
49	0x3f2543f5	0.6455682
50	0x3eb1a4aa	0.3469594
51	0x3dd175f2	0.102275744
52	0x3ecefe40	0.40428352
53	0x3ee91443	0.4552327
54	0x3f5d7fe8	0.86523294
55	0x3e6f2248	0.23352921
56	0xbe7cf698	-0.24703443
57	0x3e165334	0.14680177
58	0xbf0973c8	-0.53692293
59	0xbe861a29	-0.26191834
60	0xbecb4b09	-0.39705685
61	0x3cae9f1f	0.02131611
62	0xbe4ce72e	-0.20010063
63	0xbf1067f5	-0.56408626
64	0xbde9269f	-0.113843195
65	0xbd85b275	-0.065281786
66	0x3d0e1a28	0.034692913
67	0xbf35e0f7	-0.71046394
68	0xbf2e379d	-0.6805361
69	0x3e0ce024	0.13757378
70	0x3ee5b083	0.4486123
71	0x3e1f0f6b	0.15533225
72	0xbfca62e3	-1.5811428
73	0xbdaa1bee	-0.083061084
74	0x3e372d20	0.17888308
75	0x3e0f2b47	0.13981353
76	0x3f461567	0.7737641
77	0xbfe435ea	-1.7828953
78	0x3e641b6d	0.22276087
79	0xbd9a924a	-0.07547434
80	0x3e3b3f0a	0.18285766
81	0x3ce5440c	0.027986549
82	0xbcda0ea9	-0.026618319
83	0x3ef626c3	0.48076448
84	0x3e3c0f60	0.1836524
85	0x3e10f953	0.1415761
86	0xbe2d77f7	-0.16940294
87	0x3d9a7b98	0.07543105
88	0x3e72f5a1	0.23726512
89	0x3d3419c5	0.04396989
90	0x3c45b373	0.01206671
91	0x3f41ab55	0.75652057
92	0x3eeaacf4	0.45835078
93	0x3de419a1	0.11137701
94	0x3db7cdad	0.089747764
95	0x3ef9304a	0.48669654
96	0x3e929808	0.28631616
97	0x3dd3de43	0.103451274
98	0x3e8784e3	0.26468572
99	0xbe69c373	-0.22828464
100	0x3ea1247a	0.31473142
101	0x3e96421a	0.29347306
102	0x3e3a7a53	0.18210725
103	0x3db6a4d5	0.08918158
104	0xbf8cc877	-1.0998677
105	0x3ee533be	0.4476604
106	0x3ef205a9	0.47269943
107	0x3e273d39	0.16331948
108	0x3eb81dc7	0.35960218
109	0xbe0935eb	-0.13399474
110	0x3e0f6013	0.14001493
111	0xbe2f76ef	-0.17135213
112	0xbed14b61	-0.40877822
113	0x385fc633	5.335193e-05
114	0x3cd2a35d	0.025712663
115	0x3c3d269b	0.011544849
116	0x3e246e04	0.16057593
117	0x3e1a42e2	0.15064576
118	0x3e46f2a5	0.19428499
119	0x3ee601fa	0.44923383
120	0x3f0113c8	0.5042081
121	0x3e9724e9	0.29520348
122	0x3dc2c3a3	0.09509971
123	0x3e5456cf	0.2073624
124	0x3e71fede	0.2363238
125	0x3ed3e002	0.41381842
126	0x3e936a34	0.28791964
127	0xbebfc09d	-0.3745164
128	0x3e917a83	0.28413782
129	0x3ebf1851	0.3732324
130	0x3ee46329	0.44606903
131	0x3d0881a1	0.03332675
132	0x3ed5e4cb	0.41776118
133	0x3ee769e0	0.45197964
134	0x3ecba432	0.3977371
135	0xbec148ce	-0.37750858
136	0x3f38f6e7	0.72251743
137	0x3c27af29	0.0102346325
138	0xbe2f63b8	-0.17127883
139	0x3e3409f9	0.1758193
140	0xbec050c9	-0.37561634
141	0x3e6fbd92	0.23412159
142	0xbda94120	-0.08264375
143	0x3e360d0b	0.17778413
144	0x3ce76ff8	0.028251633
145	0x3ebbf1bf	0.36707875
146	0x3d62bad0	0.05535394
147	0x3f057da6	0.5214485
148	0x3f088a76	0.53336275
149	0x3e28dc27	0.16490231
150	0x3ecfbae1	0.40572265
151	0x3edb2714	0.42803252
152	0x3ec55906	0.38544482
153	0x3dd0c788	0.101943076
154	0xbe159783	-0.14608578
155	0xbe4a207a	-0.19738951
156	0x3e3eb064	0.18621975
157	0x3e988b94	0.2979399
158	0x3e99cf63	0.30041036
159	0x3ec243ba	0.37942296
160	0x3d0f009c	0.03491269
161	0x3e1ea272	0.15491655
162	0xbe3803ba	-0.17970172
163	0x3de27cb7	0.11058944
164	0x3ea5f04c	0.32409894
165	0xbf33ade7	-0.7018723
166	0x3eca6c4d	0.39535752
167	0xbdd5b372	-0.10434617
168	0x3f128959	0.57240826
169	0x3e52c0a6	0.20581302
170	0x3d9b59ca	0.07585485
171	0x3e275d27	0.16344129
172	0xbe51d6ce	-0.20492098
173	0xbc71808d	-0.014740122
174	0x3e88b301	0.2669907
175	0xbe328cbf	-0.17436503
176	0x3d34371a	0.04399786
177	0xbf298d4f	-0.66231245
178	0x3ddd8f82	0.108183876
179	0x3e546455	0.20741399
180	0x3d2f275c	0.042762145
181	0xbe50214c	-0.20325202
182	0xbea4f784	-0.3222009
183	0x3e8f4384	0.27981198
184	0x3e89f9d6	0.26948422
185	0xbec16cff	-0.3777847
186	0x3f3cd4b7	0.7376208
187	0x3e8e1bcb	0.2775558
188	0x3dc313be	0.0952525
189	0x3ef7d35f	0.4840345
190	0x3e75b4ef	0.23994802
191	0xbff00543	-1.8751606
192	0x3e5a0b05	0.21293266
193	0xbfd2058d	-1.6407944
194	0xbe0aa2b4	-0.13538629
195	0x3dbae328	0.09125358
196	0x3e215eb0	0.15758777
197	0xbf2ebe56	-0.6825918
198	0xbe90c11a	-0.28272325
199	0x3f465800	0.7747803
200	0x3cb602f3	0.022218203
201	0xbe3b2eae	-0.18279526
202	0xbdbf4806	-0.09339909
203	0x3dd0feb5	0.102048315
204	0x3e30ca47	0.17264663
205	0xbff26edf	-1.8940085
206	0xbec20f5b	-0.3790234
207	0xbf9948d1	-1.1975347
208	0xbdf90530	-0.121591926
209	0xbdb21b48	-0.0869661
210	0xc002c69d	-2.0433724
211	0xbe62e1d1	-0.22156455
212	0xbf39392a	-0.7235285
213	0xbcdd4e7e	-0.027014967
214	0xbe627c3e	-0.22117707
215	0xbe6a5b83	-0.22886471
216	0xbf385102	-0.7199861
217	0x3f369f74	0.71337056
218	0xbe63fbe1	-0.22264053
219	0xbe09e7d6	-0.13467345
220	0x3df7a807	0.120925955
221	0xbdb881b8	-0.09009117
222	0xbc58f7a9	-0.0132426405
223	0x3f085090	0.5324793
224	0xbf0e8fa1	-0.5568791
225	0xbd740eaa	-0.059584297
226	0x3e452f49	0.19256319
227	0x3cf03ee5	0.029326865
228	0xbed84cc1	-0.4224606
229	0x3e59676a	0.21230856
230	0xbdbf8efc	-0.09353444
231	0xbe05e039	-0.13073815
232	0xbe930b78	-0.28719687
233	0x3e66f0ad	0.22552748
234	0x3ecc97f4	0.3995968
235	0x3eecb486	0.46231478
236	0x3ea6e116	0.32593602
237	0x3d11b45f	0.035572406
238	0x3e821e83	0.25413904
239	0x3ea3b8d0	0.31976938
240	0x3eae0111	0.3398519
241	0xbe93aa08	-0.2884066
242	0x3ec86bf6	0.39144868
243	0x3eac6711	0.33672383
244	0x3f452813	0.77014273
245	0xbfa3ab97	-1.278674
246	0x3e9a5c9d	0.30148783
247	0x3e9aabd1	0.3020921
248	0x3e996f6d	0.29967824
249	0x3dc7064a	0.097179964
250	0x3ecc8ef1	0.39952806
251	0x3f5b7907	0.8573155
252	0x3f4ac988	0.7921376
253	0xbe4613c8	-0.19343483
254	0x3bfd27e9	0.007725705
255	0x3d9c73b2	0.07639255

gcn.conv2.bias f4 [32]
0	0x3dd71b3b	0.10503241
1	0xbce692d1	-0.02814618
2	0x3f01c058	0.5068412
3	0x3d81eacc	0.06343612
4	0xbe91eba6	-0.28500098
5	0x3e0fb287	0.14032947
6	0x3cc0393a	0.023464788
7	0x3e04ae27	0.12957059
8	0xbdbb8c46	-0.091576144
9	0xbd3b1da1	-0.045682553
10	0x3d985683	0.07438376
11	0x3f166771	0.5875159
12	0x3d8c5246	0.0685163
13	0x3f6be11f	0.9214038
14	0x3d126f7e	0.03575086
15	0x3e56c813	0.2097476
16	0xbf161a95	-0.5863431
17	0xbf458629	-0.7715784
18	0xbc9eb6b5	-0.01937423
19	0xbb157ac2	-0.0022808765
20	0xbfc2c4c2	-1.5216296
21	0xbf23b52b	-0.63948315
22	0xbd580877	-0.052742448
23	0x3cbf38d8	0.023342535
24	0x3b8ef4a3	0.004362659
25	0xbf47aeef	-0.780013
26	0x3bd4acb7	0.006490316
27	0x3db44da2	0.0880387
28	0x3fbcd544	1.4752584
29	0x3ef6e890	0.48224306
30	0xbe876aa9	-0.26448563
31	0x3eb9561b	0.36198506

gcn.conv2.lin.weight f4 [32, 64]
0	0x3e64c945	0.22342403
1	0x3f27547d	0.65363294
2	0x3f2271bf	0.6345481
3	0x3f55a78f	0.834588
4	0xbd809a64	-0.06279448
5	0x3e45df29	0.1932341
6	0x3ed3844f	0.4131188
7	0xbe1d5dc9	-0.15367807
8	0xbe827b88	-0.25484872
9	0xbdba3231	-0.090916045
10	0xbde84e93	-0.11343112
11	0xbe5add22	-0.21373418
12	0xbe3b8f57	-0.18316399
13	0x3e7f673a	0.24941722
14	0x3de2fb17	0.11083048
15	0xbe64b5d9	-0.22334994
16	0xbd393354	-0.045214966
17	0xbd2d0c90	-0.04224831
18	0xbf2222bd	-0.63334256
19	0xbe1b426c	-0.15162057
20	0x3eebaeb9	0.4603174
21	0xbda164ff	-0.078805916
22	0x3e163aed	0.14670916
23	0xbd761df8	-0.060087174
24	0xbefa0b0c	-0.48836553
25	0xbe8979e0	-0.26850796
26	0x3ed8cdae	0.4234442
27	0x3ea32a92	0.31868416
28	0x3bcb624f	0.0062067877
29	0x3d18c93f	0.0373013
30	0x3f138d7d	0.5763777
31	0xbdcacbb3	-0.09902134
32	0xbe4742f1	-0.1945913
33	0xbe9f9c37	-0.3117387
34	0xbf53df74	-0.8276284
35	0x3da7ee4d	0.08199749
36	0xbea437ae	-0.3207373
37	0x3f169fae	0.588374
38	0xbea25b5e	-0.31710333
39	0x3d9eb2ef	0.077489726
40	0xbe6b504f	-0.22979854
41	0x3d229073	0.03968854
42	0xbf1e91ed	-0.61941415
43	0x3e0be08a	0.13659874
44	0x3ef618dd	0.48065844
45	0xbe441584	-0.19148833
46	0xbeae5795	-0.34051195
47	0xbda1ad15	-0.07894341
48	0xbed3fd32	-0.4140411
49	0x3d91eeec	0.07125649
50	0x3cdce836	0.026966196
51	0xbe52ee32	-0.20598677
52	0x3e978257	0.2959163
53	0xbf3c2e9d	-0.73508626
54	0xbe10e588	-0.14150059
55	0xbe8236cc	-0.25432432
56	0xbcce9921	-0.025219502
57	0x3e2dde23	0.1697927
58	0x3de7e964	0.113238126
59	0xbeb55c08	-0.35421777
60	0xbcbb31fe	-0.022850987
61	0x3f41247a	0.75446284
62	0x3f0cd9f4	0.5502007
63	0x3ddda953	0.10823312
64	0x3e97f7a7	0.2968113
65	0x3e0ff6e6	0.14059028
66	0xbd8f06cc	-0.06983718
67	0xbe88dae2	-0.26729494
68	0xbd15ae5e	-0.036543243
69	0x3e508bae	0.20365784
70	0xbe601b8a	-0.21885505
71	0xbe9104c9	-0.28323963
72	0xbe0b13b3	-0.13581733
73	0x3f14ddc7	0.58150905
74	0x3e29bb70	0.16575408
75	0xbe42579a	-0.1897873
76	0xbe19339b	-0.14961092
77	0xbe8a3593	-0.26994
78	0x3eb11075	0.34582868
79	0xbc4218f6	-0.011846771
80	0xbe897dac	-0.26853693
81	0xbdb973c2	-0.09055282
82	0x3e0771f2	0.1322706
83	0xbdfb0bfd	-0.12258146
84	0xbeb70abb	-0.35750374
85	0xbe715311	-0.23566844
86	0xbe949b57	-0.29024765
87	0x3e945e25	0.28978077
88	0xbd3c9e95	-0.046049673
89	0x3f43a447	0.7642254
90	0xbeca3f36	-0.3950135
91	0x3c0f0ecb	0.008731554
92	0xbe56dd35	-0.20982821
93	0x3f3644ab	0.7119853
94	0x3eea196e	0.45722526
95	0xbe850feb	-0.25988707
96	0xbdc6fc40	-0.097160816
97	0xbeee8ee9	-0.46593407
98	0x3f00e44d	0.5034836
99	0xbeaf4a87	-0.34236547
100	0xbe0db446	-0.138383
101	0x3e052f9c	0.13006443
102	0x3e1c7c9d	0.15281911
103	0xbe248d27	-0.1606947
104	0x3ecf158c	0.40446126
105	0xbe27f814	-0.16403228
106	0xbf300445	-0.68756515
107	0xbdb39526	-0.08768682
108	0x3f05bb02	0.52238476
109	0xbe9d432c	-0.3071531
110	0x3df8048f	0.121102445
111	0xbcbe743a	-0.02324878
112	0xbe04b841	-0.12960912
113	0x3d95dce5	0.07317523
114	0xbbdf7e21	-0.0068204557
115	0x3e8a801a	0.2705086
116	0x3f0be2df	0.5464305
117	0xbe9d19f7	-0.30683872
118	0x3ee76302	0.45192724
119	0xbd030a3b	-0.03199218
120	0xbec0b0b7	-0.37634823
121	0x3e2570fd	0.16156383
122	0x3e6520b4	0.22375757
123	0x3f17878d	0.5919121
124	0x3e5226e6	0.20522651
125	0x3e82caf0	0.25545454
126	0xbd211d54	-0.03933461
127	0x3ef67787	0.48138067
128	0x3e53f749	0.206998
129	0xbe575301	-0.21027757
130	0x3e28333d	0.16425796
131	0x3ccf8c21	0.025335373
132	0xbb6afedd	-0.0035857477
133	0xbdc61d26	-0.096735284
134	0xbc1d2df3	-0.009593475
135	0x3e803a8d	0.2504467
136	0x3d89f7ea	0.06736739
137	0xbd45b83f	-0.048271414
138	0x3e8e3ac2	0.27779204
139	0x3e40149e	0.18757865
140	0x3ce2cb48	0.027684823
141	0x3ea0577a	0.3131674
142	0xbe51166c	-0.2041871
143	0x3db81e9c	0.08990213
144	0xbe493a94	-0.19651252
145	0x3eca7bfb	0.39547715
146	0x3ce6f56f	0.028193204
147	0xbe53b7e0	-0.20675611
148	0xbeff627e	-0.4987983
149	0xbd2b7044	-0.04185511
150	0x3eb90e2c	0.36143625
151	0x3d8e39ee	0.06944643
152	0x3d7a9c14	0.061184004
153	0x3dd323bb	0.103095494
154	0xbd8ec2ef	-0.069707744
155	0xbe2d1643	-0.16903023
156	0xbe753e16	-0.23949465
157	0x3e36d34d	0.17854042
158	0xbef47774	-0.47747386
159	0x3d959f13	0.073057316
160	0xbe91ce73	-0.2847782
161	0x3e8b5f98	0.2722137
162	0xbe91faf4	-0.28511775
163	0x3d18b35a	0.037280418
164	0x3f203c05	0.6259158
165	0xbe44de21	-0.1922536
166	0x3d8749c2	0.06605865
167	0x3e993e10	0.29930162
168	0x3f0a4213	0.5400707
169	0xbdf1bab4	-0.11803189
170	0xbf128d04	-0.5724642
171	0x3e2eab94	0.1705764
172	0xbe67d141	-0.22638418
173	0xbef81500	-0.48453522
174	0xbe404216	-0.1877521
175	0x3c714934	0.014726926
176	0xbe95683a	-0.2918108
177	0xbf102be0	-0.5631695
178	0x3e2b1035	0.16705401
179	0x3deeffc0	0.11669874
180	0x3e963c13	0.29342708
181	0xbf13651a	-0.57576144
182	0xbeb32ab1	-0.34993508
183	0x3e827855	0.2548243
184	0x3d143228	0.036180645
185	0xbec088b5	-0.376043
186	0x3f1e6335	0.6187013
187	0x3dfff239	0.12497372
188	0xbe58ebfb	-0.2118377
189	0x3e5e8093	0.21728735
190	0xbe421e71	-0.18956925
191	0xbe10f35e	-0.14155337
192	0xbe9fd3b3	-0.312162
193	0xbe421b3d	-0.18955703
194	0x3ecf5955	0.40497842
195	0x3df01018	0.1172182
196	0x3d8a9fbb	0.067687474
197	0xbd11f7c7	-0.03563669
198	0xbe8a3c70	-0.26999235
199	0xbe97aaac	-0.296224
200	0x3f2221d1	0.6333285
201	0x3e4a6b2e	0.19767448
202	0x3b3e3011	0.002902035
203	0xbe6e3ac9	-0.23264612
204	0xbeb953fc	-0.36196887
205	0xbed71dd1	-0.42014936
206	0xbe81e49f	-0.25369737
207	0x3d6a4c74	0.057201818
208	0x3ef95761	0.48699477
209	0xbe7f6c14	-0.24943572
210	0xbd8ccddc	-0.06875202
211	0xbf105029	-0.56372315
212	0xbe07fa53	-0.13279085
213	0xbe1a85b2	-0.15090063
214	0xbe8299cf	-0.25507972
215	0xbeda9f80	-0.42699814
216	0x3c136c10	0.008997932
217	0x3f28a604	0.6587832
218	0xbf135dfa	-0.5756527
219	0x3cf3985f	0.029735742
220	0x3ed5aa27	0.41731378
221	0xbdaf5b59	-0.08562345
222	0x3e3b1239	0.1826867
223	0x3e05c053	0.13061647
224	0x3e029d32	0.12755278
225	0x3e4f7992	0.20261219
226	0x3f462e65	0.7741454
227	0xbf2042da	-0.6260201
228	0xbeb1b356	-0.34707135
229	0x3da63ad5	0.0811669
230	0x3dc08d37	0.094019346
231	0xbede9b9a	-0.4347809
232	0xbe6272a0	-0.22114038
233	0x3d5717c7	0.05251291
234	0x3e732aa4	0.23746735
235	0xbe09f6cf	-0.13473056
236	0xbd9a11c5	-0.075229205
237	0x3f1a0234	0.6015961
238	0xbe04298a	-0.12906471
239	0xbed292d0	-0.41127634
240	0x3dc363d4	0.09540525
241	0xbe4a2f0d	-0.19744511
242	0xbef8b54e	-0.48575824
243	0x3ea09c78	0.31369376
244	0xbed73e5f	-0.42039773
245	0xbf2953b5	-0.6614335
246	0xbe77d4bc	-0.24202245
247	0x3e0b94aa	0.1363093
248	0x3f1f1a37	0.62149376
249	0x3f1abac5	0.6044124
250	0x3ed06978	0.40705466
251	0xbf46befb	-0.77635163
252	0x3e9f3c91	0.31100896
253	0x3f048500	0.5176544
254	0x3e836532	0.25663143
255	0x3e2ff9a4	0.17185074

fc.0.weight f4 [64, 96]
0	0xbd950ffa	-0.07278438
1	0x3e778e6a	0.2417542
2	0xbe3e64d2	-0.18593147
3	0x3d8497e4	0.06474283
4	0x3e82af99	0.25524595
5	0xbe1b46e9	-0.15163769
6	0x3dd4eb79	0.10396475
7	0xbd6558b1	-0.055992786
8	0x3cc3f6d8	0.023921415
9	0x3d2cabba	0.04215596
10	0xbd631681	-0.055441383
11	0xbe3f06df	-0.18654965
12	0xbdd478b6	-0.10374586
13	0xbb48325b	-0.0030547592
14	0x3d63ae21	0.055585984
15	0x3e65c41f	0.22438096
16	0xbd68ec48	-0.05686596
17	0x3cf53708	0.029933468
18	0xbd209ee4	-0.03921403
19	0x3d53b29a	0.051684
20	0x3e87dc44	0.26535237
21	0x3d88194c	0.0664545
22	0xbcb6d7d8	-0.02231972
23	0xbe12d7a6	-0.14340076
24	0x3cce146a	0.025156219
25	0x3d862177	0.06549352
26	0xbd69dcaf	-0.057095226
27	0xbec23e4a	-0.37938148
28	0xbcbd5a61	-0.023114385
29	0xbca8e843	-0.020618564
30	0x3dfaf656	0.12254016
31	0xbd6c1a9c	-0.057642564
32	0xbd5f3d55	-0.05450185
33	0x3e4cbe35	0.19994433
34	0xbe354ad4	-0.17704326
35	0x3db55053	0.08853211
36	0x3e75cc2b	0.24003665
37	0xbe15dc89	-0.14634909
38	0x3da1b7b4	0.07896367
39	0xbdce05e4	-0.10059717
40	0x3ac98db0	0.0015377309
41	0x3c414ed1	0.011798576
42	0xbd35a6d5	-0.044348557
43	0xbe183c89	-0.14866842
44	0xbdfc31df	-0.123142
45	0xbcaa76e4	-0.020808645
46	0x3d9ae0a0	0.07562375
47	0x3e612098	0.2198509
48	0xbd0a62cf	-0.033785637
49	0x3cbfdcae	0.023420658
50	0xbcd91f6d	-0.026504243
51	0x3d56fb0b	0.052485507
52	0x3ecae8da	0.39630777
53	0x3d95d793	0.07316508
54	0xbc8afe67	-0.016967012
55	0xbe19c35e	-0.15015933
56	0x3d3164f9	0.043309186
57	0x3d8918d6	0.0669419
58	0xbd664554	-0.05621846
59	0xbec6e2c6	-0.3884489
60	0xbcc16bd4	-0.023610987
61	0x3c17071b	0.009218003
62	0x3de5974a	0.11210497
63	0xbdbd1fa8	-0.092345536
64	0x3e018d07	0.12651454
65	0x3dc6ca87	0.09706598
66	0xbe48ebe6	-0.19621238
67	0x3d8d534b	0.069006525
68	0xbcf36bc6	-0.029714476
69	0x3d595870	0.053062856
70	0x3db15cf1	0.08660305
71	0xbdd00422	-0.10157038
72	0xbd460cce	-0.048352055
73	0xbd49610d	-0.04916482
74	0xbd287351	-0.0411256
75	0xbe3324b3	-0.17494468
76	0xbd7c02e6	-0.0615262
77	0xc0a9b3de	-5.3032064
78	0x3c6febc0	0.0146436095
79	0x3cb665a7	0.022265268
80	0x3d9124da	0.07087107
81	0xc104b83d	-8.29498
82	0x3e16f2cd	0.14741059
83	0xbdd24016	-0.1026613
84	0x3e904abc	0.28182018
85	0x3dd2fd58	0.10302228
86	0xbdeef7a3	-0.11668327
87	0x3d74fb43	0.059809934
88	0xbc6b14ec	-0.01434825
89	0x3de374bc	0.1110625
90	0x3d6991b3	0.057023715
91	0xbc6f638a	-0.014611134
92	0xbedd5f53	-0.4323679
93	0x3befdff3	0.007320398
94	0xbd82af5c	-0.063811034
95	0xbe05973f	-0.13045977
96	0xbd24a08e	-0.04019218
97	0x3de2ea9d	0.11079905
98	0xbe2925f8	-0.1651839
99	0xbd9e982e	-0.0774387
100	0xbdd1f2a7	-0.102513604
101	0xbc2d4988	-0.010576613
102	0x3e079238	0.13239372
103	0x3e9484e9	0.29007652
104	0xbe06d8fa	-0.13168707
105	0xb40bd225	-1.3021834e-07
106	0xbe1ba88b	-0.15201013
107	0x3e327a3c	0.17429441
108	0xbdefbde7	-0.11706143
109	0xbd6759fa	-0.056482293
110	0xbd67acf5	-0.05656143
111	0xbd9918e4	-0.07475451
112	0xbe49f0b0	-0.19720721
113	0x3c2dbe90	0.010604516
114	0x3e2f7066	0.1713272
115	0xbcfb9790	-0.03071192
116	0xbe163f36	-0.1467255
117	0xbd8d4e91	-0.06899751
118	0x3d522b96	0.051311098
119	0x3dbe9e81	0.09307576
120	0xbd90557d	-0.070475556
121	0x3dbe5aa7	0.09294634
122	0x3bcbb4b1	0.0062166085
123	0x3e5ba072	0.21447924
124	0x3d21756b	0.03941862
125	0xbdddb10d	-0.108247854
126	0x3c950e02	0.018195156
127	0x3d0d2b43	0.034465086
128	0xbd166e0f	-0.036726054
129	0x3db4b2e5	0.08823184
130	0xbe0656ae	-0.13119003
131	0xbdad2f28	-0.0845626
132	0xbd722e51	-0.059126202
133	0x3ae56918	0.0017502634
134	0x3e0da344	0.13831812
135	0x3e957db6	0.29197472
136	0xbe307595	-0.17232354
137	0x3cd1483a	0.025547136
138	0xbe11195f	-0.14169835
139	0x3e3d4440	0.18483067
140	0xbe065c85	-0.13121231
141	0xbdd0f04d	-0.10202084
142	0xbd677370	-0.056506574
143	0xbda966da	-0.082715705
144	0xbd895257	-0.06705158
145	0x3d68b351	0.056811634
146	0x3e477341	0.1947756
147	0xbd3641e7	-0.044496443
148	0xbe87b2c5	-0.26503578
149	0xbddb2481	-0.10700322
150	0x3d0bb863	0.03411139
151	0x3da152d0	0.07877123
152	0xbd430984	-0.047616497
153	0x3dca85e1	0.098888166
154	0xba153241	-0.00056913873
155	0x3e456e6d	0.19280405
156	0x3cd5206b	0.026016435
157	0xbddd8922	-0.10817172
158	0x3d681151	0.05665714
159	0x3d017afc	0.031611428
160	0xbdcc2a1d	-0.0996897
161	0xbe7891cd	-0.24274369
162	0x3e65078b	0.22366159
163	0xbda1d79b	-0.079024516
164	0xbe2988fe	-0.16556165
165	0xbd5add78	-0.053433865
166	0x3d240188	0.040040523
167	0x3da510f8	0.08059877
168	0x3c454c5f	0.012042134
169	0x3ccd21b7	0.02504049
170	0xbd134b4d	-0.035960484
171	0x3de180b7	0.110108785
172	0x3d7d102c	0.061783
173	0xc1017acd	-8.092481
174	0xbcd9759d	-0.02654534
175	0xbdcd353c	-0.10019919
176	0xbed4cfb6	-0.4156472
177	0xc0336b17	-2.8034112
178	0xbe19c7f5	-0.15017684
179	0x3e05ba0d	0.13059254
180	0xbf1f560d	-0.6224068
181	0xbe9b7e0c	-0.30369604
182	0xbda60465	-0.08106307
183	0xbd478920	-0.048714757
184	0xbe59bc53	-0.21263246
185	0xbe59d77e	-0.2127361
186	0xba5ac48d	-0.00083453284
187	0x3e1123b8	0.14173782
188	0x3e87177b	0.26385102
189	0xbcd619c6	-0.026135337
190	0xba843401	-0.0010086299
191	0x3e0e6fa5	0.13909777
192	0xbe530320	-0.20606661
193	0xbe67dc59	-0.2264265
194	0xbd823457	-0.06357639
195	0xbe8a38de	-0.2699651
196	0xbe993c82	-0.29928976
197	0xbe698964	-0.22806317
198	0xbe9d7907	-0.307564
199	0xbececdf0	-0.40391493
200	0xbe541580	-0.20711327
201	0x3ea3afb3	0.31969985
202	0x3e4f4198	0.20239866
203	0x3d210b4c	0.039317414
204	0xbde92ee2	-0.11385895
205	0xbdf7adcc	-0.12093696
206	0xbea03df3	-0.31297264
207	0xbd446ccd	-0.047955323
208	0x3e53e4b9	0.2069272
209	0x3d500ae4	0.050791636
210	0xbe2fedf8	-0.17180622
211	0xbe33e2b2	-0.17566946
212	0xbd9c3d02	-0.07628824
213	0x3e8c1327	0.27358362
214	0xbe46ef72	-0.19427279
215	0xbe9a493a	-0.30133992
216	0x3dda3727	0.10655051
217	0x3dcb47ea	0.09925826
218	0xbe07738e	-0.13227674
219	0xbdbadf5b	-0.09124633
220	0xbcad8a0c	-0.02118399
221	0xbf20ddaf	-0.6283826
222	0x3d489b0c	0.04897599
223	0xbd7093fb	-0.058734875
224	0xbe913689	-0.2836192
225	0xbd4b9044	-0.04969813
226	0xbd100dc0	-0.035169363
227	0xbe43d343	-0.19123559
228	0xbec6bbb4	-0.3881508
229	0xbe7fd393	-0.24983053
230	0xbea02482	-0.31277853
231	0xbec70960	-0.3887434
232	0xbe8fde5d	-0.28099337
233	0x3ebc70c8	0.36804795
234	0x3d9c821c	0.07642004
235	0xbc5521da	-0.013008559
236	0xbe067a62	-0.13132623
237	0xbd1fa776	-0.038978063
238	0xbe85e140	-0.26148415
239	0x3d46b24e	0.04850989
240	0x3e341465	0.17585905
241	0x3da7a37c	0.08185479
242	0xbe64a547	-0.22328673
243	0xbe417c0c	-0.18894976
244	0x3e274d7f	0.16338156
245	0x3e859c9e	0.26096052
246	0xbe2792e8	-0.16364634
247	0xbea4797e	-0.3212394
248	0xbd1b7649	-0.037954602
249	0x3e492acf	0.19645236
250	0xbe6b95c6	-0.23006353
251	0xbe32819a	-0.17432252
252	0xbcfaa199	-0.030594634
253	0xbf3b2a01	-0.7311097
254	0x3deab800	0.114608765
255	0xbcfddec9	-0.030990021

fc.0.bias f4 [64]
0	0xbd8a2b2d	-0.067465164
1	0x3d61d8bd	0.05513834
2	0x3d028dc1	0.03187347
3	0xbc366ee0	-0.011134833
4	0x3d9ceae9	0.07661993
5	0x3c589ea2	0.013221415
6	0xbde954ee	-0.11393152
7	0xbde32d74	-0.11092654
8	0xbe19e911	-0.15030314
9	0x3ca7d389	0.02048661
10	0xbe2e11be	-0.16998956
11	0x3d0b9883	0.034080993
12	0x3c99492f	0.018711654
13	0x3dad2c97	0.084557705
14	0x3e7e3550	0.24825025
15	0xbe139cf0	-0.14415336
16	0x3d20fb53	0.03930218
17	0xbe3855bf	-0.1800146
18	0x3e04259a	0.12904969
19	0xbd5b9355	-0.053607304
20	0x3e2858a8	0.1644007
21	0x3b1d1bd2	0.002397288
22	0x3e5933df	0.21211194
23	0xbe01d26f	-0.1267793
24	0xbd41dd6f	-0.047330316
25	0xbdc066cc	-0.09394607
26	0xbdb6bf2a	-0.089231804
27	0xbd85ca29	-0.065326996
28	0x3e0a2d66	0.1349388
29	0x3d54027b	0.051760178
30	0x3cf726a6	0.030169796
31	0x3cd8cb1a	0.026464034
32	0x3d03283f	0.032020804
33	0xbc766931	-0.015039728
34	0x3d76fefc	0.060301766
35	0x3d646f55	0.055770237
36	0x3d8096c4	0.06278756
37	0x3e4e9600	0.20174408
38	0x3e57d4f2	0.21077326
39	0xbdb387bf	-0.08766126
40	0xbde5a615	-0.11213318
41	0xbeecd5cd	-0.46256867
42	0xbdebb438	-0.115089834
43	0x3d355523	0.044270646
44	0xbdeaa55c	-0.11457321
45	0xbda38faf	-0.0798639
46	0x3d96cfd1	0.073638566
47	0xbd24064d	-0.04004507
48	0x3cc1c2d3	0.02365247
49	0xbe0306e3	-0.12795596
50	0x3d53139a	0.051532365
51	0xbdeea4c4	-0.1165252
52	0x3df8b43e	0.121437535
53	0xbd9d3266	-0.07675628
54	0xbce399ff	-0.027783392
55	0x3d0679c0	0.032830954
56	0xbd4369cb	-0.047708314
57	0xbb869c33	-0.004107976
58	0x3d42acf1	0.04752821
59	0x3dba6097	0.09100454
60	0xbd984003	-0.07434084
61	0xbc5b616e	-0.013389928
62	0x3e16600c	0.14685076
63	0xbd2c51fd	-0.042070378

fc.2.weight f4 [1, 64]
0	0x3f0f9159	0.5608116
1	0x3f0dc761	0.55382353
2	0x3f0d4e79	0.55197865
3	0xbc9cef41	-0.019157054
4	0x3dfc25b6	0.1231188
5	0x40ac02e6	5.375354
6	0x3d4c1daa	0.049832977
7	0x3a51e9eb	0.0008007574
8	0x409ef11a	4.9669313
9	0xbd0309d5	-0.0319918
10	0x3f232d72	0.6374122
11	0xbc97c894	-0.01852826
12	0x3e70c753	0.23513536
13	0x3e2349bc	0.15946096
14	0x3e064496	0.13112101
15	0xbdcc2940	-0.09968805
16	0xbc0861c2	-0.0083240885
17	0xbe20d51c	-0.15706295
18	0x3e165842	0.14682105
19	0xbdb3df70	-0.08782852
20	0x3f17d5b7	0.5931048
21	0x3d44c185	0.048036117
22	0x3e253255	0.16132481
23	0x3ccdabc6	0.025106322
24	0xbda50c71	-0.08059014
25	0xbc9cc648	-0.019137517
26	0xbd89def1	-0.06731976
27	0xbe004172	-0.12524965
28	0x3e962c33	0.29330596
29	0xbdcfcf93	-0.101470135
30	0xbd06b9f1	-0.03289217
31	0xbcfdc43a	-0.030977357
32	0xbde0292d	-0.10945354
33	0xbdaaf374	-0.08347216
34	0xbbc10fa2	-0.005891756
35	0x3db7fe8d	0.089840986
36	0x3dd5751f	0.1042273
37	0x3dcf3ffe	0.101196274
38	0x3d7e2a9a	0.062052347
39	0x3be3ece4	0.00695573
40	0xbdce2949	-0.10066468
41	0xbf09db91	-0.53850657
42	0xbd19fe45	-0.037596006
43	0xbda02fae	-0.07821594
44	0xbe849e4e	-0.25902027
45	0xbddae972	-0.106890574
46	0x40d26374	6.5746403
47	0xbdcd9fbe	-0.10040234
48	0x40d08d3d	6.517241
49	0xbce4968a	-0.027903814
50	0xbdb3326a	-0.0874985
51	0xbec54f0d	-0.38536873
52	0xbee6a1d0	-0.45045328
53	0xbdeb5017	-0.11489885
54	0xbd38e547	-0.04514053
55	0xbba06907	-0.0048953327
56	0xbdb0f942	-0.08641292
57	0x3e6d2b0b	0.23160951
58	0xbe030b7e	-0.12797353
59	0x40b456d6	5.6356
60	0xbdaff43b	-0.08591505
61	0xbde44789	-0.11146457
62	0x3e1f4e7d	0.15557285
63	0xbbf963ab	-0.0076107583
